model/traced_model.pt (torch, 116439 bytes, 6 tensors)

weight f4 [100, 150]
0	0xbdf91847	-0.12162834
1	0xbd64bdaf	-0.05584496
2	0xbd8672d8	-0.065648735
3	0x3dd926cf	0.10603105
4	0xbcc768bb	-0.024341932
5	0xbdb43cca	-0.08800657
6	0x3d1b4a4e	0.03791266
7	0x3dad0f74	0.08450213
8	0xbc11c8a2	-0.008897932
9	0xbe6b97fc	-0.23007196
10	0x3e3458d8	0.17612016
11	0x3d30b4d3	0.043141197
12	0x3dc88c7c	0.0979242
13	0x3cd2e53b	0.025744071
14	0x3d745d82	0.05965949
15	0xbd9f3f3e	-0.07775734
16	0xbcee75a5	-0.029108832
17	0xbcf91cd7	-0.03040926
18	0x3d152980	0.03641653
19	0xbd8323df	-0.06403326
20	0xbcaf20f2	-0.021378014
21	0x3ce5a139	0.028030979
22	0x3d9774fd	0.073953606
23	0xbc6c80b3	-0.014434981
24	0xbdb0cf49	-0.086332865
25	0x3e4cd157	0.20001732
26	0xbdbc20d3	-0.09185948
27	0x3bddffb9	0.0067748693
28	0x3d996edf	0.0749185
29	0xbc11279b	-0.00885954
30	0xbda230d1	-0.07919467
31	0x3ca0a6fa	0.01961087
32	0xbd705d60	-0.0586828
33	0x3d62a582	0.05533362
34	0xbd081667	-0.03322449
35	0xbdfb8bf2	-0.12282552
36	0x3d8b27b8	0.06794685
37	0x3de86c1c	0.11348745
38	0x3db80891	0.08986009
39	0xbca59cef	-0.020216433
40	0x3dc2e0c2	0.095155254
41	0xbda5f07e	-0.08102511
42	0x3d205f73	0.039153527
43	0x3c543e81	0.012954355
44	0x3d1e7a8b	0.038691085
45	0xbd9b3a9c	-0.07579538
46	0xbd5275f6	-0.051382028
47	0x3d360f06	0.04444792
48	0x3c269450	0.010167196
49	0xbd028409	-0.0318642
50	0xbddc8ec1	-0.10769416
51	0x3d2a72f7	0.041613545
52	0x3e01e5ba	0.1268529
53	0xba7e433e	-0.0009699351
54	0x3c87c442	0.016573075
55	0x3dff7f3d	0.12475441
56	0xbd4c3cc6	-0.049862646
57	0x3c1ee426	0.0096979495
58	0xbd6a0105	-0.05712988
59	0x3d58c235	0.052919585
60	0xbddb2498	-0.10700339
61	0xbdb22161	-0.08697773
62	0xbdc7b190	-0.09750664
63	0x3d85ded5	0.065366425
64	0xb94f8e00	-0.00019793957
65	0xbdab9f2f	-0.08379971
66	0x3c71931d	0.014744547
67	0x3b9c1df0	0.004764311
68	0xbd60dd6a	-0.054898657
69	0xbce1fe41	-0.027587058
70	0x3c84bf21	0.016204419
71	0x3d6e8fc7	0.058242586
72	0xbcece509	-0.028917806
73	0xbce0952d	-0.027414883
74	0x3d8451fa	0.06460948
75	0xbdf3a6dc	-0.1189706
76	0x3d089264	0.033342734
77	0xbdb0118a	-0.08597095
78	0xbc9f7d84	-0.01946903
79	0xbc559d15	-0.01303794
80	0xbd800f21	-0.062528856
81	0x3ca5dcfd	0.020246977
82	0xbd83d589	-0.06437213
83	0x3c84b687	0.016200317
84	0x3d64c4fe	0.05585193
85	0xbdb7bb34	-0.08971253
86	0x3d19f92d	0.03759115
87	0xbde385a9	-0.11109478
88	0x3c435f12	0.011924522
89	0x3d55a53b	0.05215953
90	0xbe335e8f	-0.1751654
91	0xbd8b48ee	-0.068010196
92	0xbdbaafc4	-0.09115556
93	0xbdab545a	-0.08365698
94	0x3d70e8e8	0.058815867
95	0x3d492b85	0.04911377
96	0xbd16a360	-0.0367769
97	0xbd99cb55	-0.07509486
98	0x3ce102bb	0.027467122
99	0x3e0528cb	0.13003843
100	0xbe0eef71	-0.13958527
101	0x3db8e2c3	0.09027626
102	0xbd13ce51	-0.03608543
103	0x3cf1d241	0.029519202
104	0xbd0eaec8	-0.034834653
105	0xbe42f300	-0.1903801
106	0x3d24a84c	0.040199563
107	0x3d66fcb6	0.056393348
108	0xbdd42944	-0.10359433
109	0x3d99824f	0.074955575
110	0x3cb46909	0.02202274
111	0xbd8ede6a	-0.06976016
112	0xbe205c05	-0.15660103
113	0xbd949784	-0.07255462
114	0x3e29ae51	0.16570403
115	0xbe69d388	-0.22834599
116	0x3d353022	0.044235356
117	0xbd77608e	-0.060394816
118	0x3d677edd	0.05651747
119	0x3da2fbe0	0.079581976
120	0xbe455213	-0.1926959
121	0x3d5f0956	0.054452263
122	0xbbe37d50	-0.0069424286
123	0xbbd5a515	-0.0065199235
124	0x3d4e33cd	0.05034237
125	0x3dc09ad2	0.0940453
126	0xbe0f9d9d	-0.14024968
127	0xbe1e82a0	-0.15479517
128	0x3c11a562	0.008889528
129	0x3e585a67	0.21128236
130	0xbe9a2f32	-0.30114132
131	0x3df6c8f1	0.12050045
132	0xbddf6c1c	-0.10909292
133	0xbd3e1172	-0.046403356
134	0x3d9f42a1	0.0777638
135	0xbe2baf33	-0.16766052
136	0x3d5e01e4	0.05420102
137	0xbdbf97cd	-0.093551256
138	0x3b9e09b5	0.0048229345
139	0x3d87d3d6	0.066322014
140	0x3dfe2e1d	0.12411139
141	0xbde2e545	-0.11078886
142	0xbe88465b	-0.26616177
143	0x3c5f6df1	0.013637052
144	0x3ea7d465	0.32779232
145	0xbe97a4da	-0.2961796
146	0x3dc8d605	0.09806446
147	0xbe229e39	-0.1588067
148	0xbce4dfca	-0.027938742
149	0x3d8b45f5	0.068004526
150	0xbc6d0b8d	-0.014468086
151	0xbdc433bd	-0.09580181
152	0xbdf7b58c	-0.12095174
153	0xbe358fc1	-0.17730619
154	0x3d367902	0.044548996
155	0x3e911cba	0.2834223
156	0xbcf750cc	-0.030189894
157	0xbe351254	-0.17682773
158	0xbdc9e679	-0.09858412
159	0x3cec1b4b	0.028821608
160	0xbe5a58e2	-0.21322969
161	0xbc2105a1	-0.009828002
162	0x3e28f5d0	0.1650002
163	0xbdbc6288	-0.09198481
164	0xbdf6ce97	-0.12051123
165	0x3c4cfeb6	0.0125119
166	0xb939d863	-0.00017723585
167	0xbcb74fe9	-0.022376971
168	0xbdc4e3e3	-0.096137784
169	0x3c49dc53	0.012320596
170	0x3e76f671	0.24117447
171	0xbd344059	-0.04400668
172	0xbddd4046	-0.10803275
173	0xbcf4a854	-0.029865421
174	0xbcb24381	-0.021760704
175	0xbe096b4f	-0.13419841
176	0x3d5b89c1	0.05359817
177	0x3e2de3d9	0.16981448
178	0xbdf4a2bb	-0.11945101
179	0xbe465790	-0.1936934
180	0x3b60d4c5	0.0034306508
181	0x3d3b54c9	0.045735154
182	0xbd9a355d	-0.075297095
183	0xbd7a3166	-0.061082266
184	0x3d406846	0.046974443
185	0x3d91b759	0.07115049
186	0xbcfc6d7b	-0.030813923
187	0xbd51aed0	-0.051192105
188	0xbd6b00f4	-0.057373956
189	0xbd1a41fe	-0.03766059
190	0xbdd8ebdd	-0.10591862
191	0x3d1075b4	0.0352685
192	0x3c34f18e	0.011043919
193	0xbcd873f8	-0.026422486
194	0xbd97600b	-0.073913656
195	0xbdc89ad1	-0.09795154
196	0x3d76dcdf	0.060269233
197	0xbd6367bf	-0.05551886
198	0xbe023e82	-0.12719157
199	0xbcfe3817	-0.031032605
200	0x3d78e702	0.06076718
201	0x3d2d1cbe	0.04226374
202	0xbdd2d17f	-0.102938645
203	0xbda3e8e8	-0.08003408
204	0x3ccf3aa0	0.02529651
205	0xbc7c6861	-0.015405745
206	0xbb91d30b	-0.004450207
207	0x3db9a582	0.09064771
208	0xbdc650f6	-0.09683411
209	0xbc80a274	-0.015702464
210	0xbd3dfa9a	-0.04638157
211	0xbd87212b	-0.06598123
212	0xbd9ea5c8	-0.07746464
213	0xbc9c6935	-0.019093135
214	0x3cb9bf42	0.022674207
215	0x3d924af5	0.07143203
216	0xbd74c542	-0.059758432
217	0x3cd87d1a	0.02642684
218	0x3d13bd33	0.036069106
219	0xbce3191d	-0.027721936
220	0x3c22a316	0.009926578
221	0x3dc895e3	0.097942136
222	0x3d6367ff	0.0555191
223	0x3915267b	0.00014224082
224	0xbda63c96	-0.081170246
225	0xbdabcf95	-0.083892025
226	0x3ccf4677	0.025302155
227	0xbb776a3f	-0.0037752537
228	0x3ae3f51d	0.0017391775
229	0x3d435555	0.0476888
230	0x3d4f1feb	0.05056755
231	0x3d82ac32	0.063805
232	0x3d74bfeb	0.05975334
233	0x3d332bbc	0.04374288
234	0xbc673656	-0.014112076
235	0x39d91f97	0.00041413002
236	0xbd431416	-0.047626577
237	0xbdb42ccf	-0.08797609
238	0xbcb393a9	-0.021920996
239	0x3d2822cb	0.041048806
240	0xbd0cad17	-0.03434476
241	0xbd1ab119	-0.03776655
242	0xbe145bd2	-0.14488152
243	0x3dd8000b	0.10546883
244	0xbd6e6950	-0.058205903
245	0xbd22c53c	-0.03973888
246	0xbc4342eb	-0.01191781
247	0x3db9d8a9	0.09074528
248	0x3be7416d	0.00705736
249	0xbbb3afa6	-0.0054835854
250	0x3d93fd01	0.07225991
251	0x3c07957d	0.008275387
252	0xbd099cdf	-0.03359687
253	0xbcc23946	-0.02370895
254	0x3e1eb676	0.15499291
255	0xbdf71d7d	-0.12066171

bias f4 [100]
0	0xbd98d003	-0.0746155
1	0xbc682527	-0.014169014
2	0x3c966563	0.018358892
3	0xbe39c32d	-0.1814086
4	0xbe08d8cd	-0.13363953
5	0xbc1784bb	-0.009247954
6	0xbd5f145f	-0.054462787
7	0x3e2c7dfd	0.16844936
8	0x3cb4a234	0.02205
9	0xbcf8ae38	-0.030356511
10	0xba91d4a4	-0.0011125994
11	0xbe4d2a07	-0.20035563
12	0x3d245a78	0.04012534
13	0xbbedf4a1	-0.007261828
14	0x3d931055	0.071808495
15	0x3cc7227f	0.024308441
16	0xbde5b608	-0.1121636
17	0xbd4cec08	-0.050029784
18	0x3d2daa71	0.042398874
19	0xbe199e55	-0.15001805
20	0x3cc7aced	0.02437445
21	0xbd476f8a	-0.048690356
22	0xbd973783	-0.07383635
23	0xbe25a470	-0.16176009
24	0x3d5d6c88	0.05405858
25	0x3c363a3e	0.011122284
26	0xbcadfd9e	-0.021239098
27	0xbca38117	-0.019959016
28	0x3e2e6697	0.17031322
29	0x3dce6122	0.1007712
30	0xbd7af96f	-0.061273035
31	0xbdacbd1f	-0.084345095
32	0x3e328d99	0.17436828
33	0xbe2a25fc	-0.16616052
34	0xbd890a44	-0.06691411
35	0xbdb608aa	-0.08888371
36	0xbdb32393	-0.087470196
37	0xbcb2c264	-0.021821208
38	0x3c28e4c3	0.010308447
39	0xbe259318	-0.16169393
40	0xbc5ec2ad	-0.013596219
41	0xbd96dbc5	-0.073661365
42	0xbd9149b5	-0.070941366
43	0x3d6f6a68	0.058451086
44	0x3d89ab33	0.06722107
45	0x3c5d5367	0.013508654
46	0xbe18ca97	-0.14921032
47	0xbcb79138	-0.022408113
48	0xbda3a078	-0.07989591
49	0xbdb47363	-0.08811071
50	0x3d021899	0.03176174
51	0x3cb2b039	0.021812545
52	0xbce5bd4e	-0.02804437
53	0xbe04d006	-0.1296998
54	0xbb318046	-0.0027084514
55	0xbd8a1bca	-0.067435816
56	0x3b970655	0.004608909
57	0xbd29fe13	-0.04150207
58	0x3d8c8fd4	0.068633705
59	0xbe16a177	-0.14710031
60	0xbd3ca26d	-0.04605334
61	0x3d8a8fbf	0.06765699
62	0xbd039652	-0.03212578
63	0x3d8a9a7c	0.06767747
64	0x3d13034f	0.035891827
65	0xbc8071ac	-0.015679203
66	0xbc441b1c	-0.011969354
67	0xbe19e3df	-0.15028332
68	0xbc9f4693	-0.019442832
69	0xbbe72de4	-0.007055031
70	0xbd2f7eda	-0.042845584
71	0xbd8e1b34	-0.06938782
72	0xbda86871	-0.082230456
73	0xbcd8838a	-0.02642991
74	0x3d0e3d77	0.034726586
75	0x3cf5fac0	0.030026793
76	0xbdd8d82b	-0.10588106
77	0x3cda1ddb	0.026625564
78	0xbcc15bee	-0.023603406
79	0x3d257f63	0.04040469
80	0xbd40ac4c	-0.047039315
81	0xbcfa7a05	-0.030575762
82	0x3dd643f7	0.10462182
83	0xbbdcc482	-0.0067372927
84	0x3d0296d5	0.031882126
85	0xbe052ce9	-0.13005413
86	0xbc79384f	-0.015211179
87	0xbce14876	-0.027500372
88	0xbc9c2187	-0.019058956
89	0x3c90c76e	0.01767322
90	0x3d98f22d	0.07468066
91	0xbd301756	-0.042991005
92	0xbd92a644	-0.07160619
93	0x3d638341	0.055545095
94	0x3cb84971	0.022495957
95	0x3d2754ea	0.040852465
96	0x3c988995	0.018620292
97	0xbda2e5dc	-0.079539984
98	0x3d8f4d80	0.06997204
99	0x3d4562cc	0.048189923

weight f4 [100, 100]
0	0x3dfec501	0.12439919
1	0xbcbeee1d	-0.0233069
2	0x3ca8c227	0.020600392
3	0x3de0805c	0.109619826
4	0x3d45dd10	0.048306525
5	0xbd922da0	-0.071376085
6	0xbdb0e3d8	-0.08637208
7	0x3cc439a8	0.023953274
8	0xbd38737f	-0.04503202
9	0xbc7d55e7	-0.015462375
10	0x3e2aafb0	0.16668582
11	0xbe54bef7	-0.20775972
12	0xbcf6a6ed	-0.030108893
13	0x3a315c08	0.0006765728
14	0xbcc42e50	-0.023947865
15	0xbd9d5e78	-0.07684034
16	0xbd5eb8b6	-0.054375373
17	0xbd5568ca	-0.052101888
18	0x3e2bdbf1	0.1678312
19	0xbd793537	-0.060841765
20	0x3d89ec3c	0.06734511
21	0x3dc005b4	0.09376088
22	0x3dbb8002	0.09155275
23	0x3ccc07da	0.024906088
24	0xbbccb800	-0.0062475204
25	0xbd43203b	-0.04763816
26	0xbcd5bc06	-0.026090633
27	0x3d8524cf	0.06501161
28	0xbdf73181	-0.12069989
29	0x3da6bf8d	0.08142004
30	0x3da0125f	0.07816004
31	0xbdd4b97d	-0.103869416
32	0xbc51143e	-0.012761174
33	0x3e0f62db	0.14002554
34	0xbcbc5b53	-0.022992766
35	0xbc647967	-0.01394496
36	0xbd3b441d	-0.045719255
37	0xbda5db0f	-0.08098423
38	0xbdc4f72d	-0.096174575
39	0xbdc8cab5	-0.09804288
40	0xbd7ed283	-0.06221248
41	0xbc71b7c3	-0.014753285
42	0x3d8783d0	0.06616938
43	0xbd93e949	-0.0722223
44	0x3dc2b365	0.09506873
45	0x3da825e2	0.082103506
46	0x3d8bbf0c	0.06823549
47	0x3d84c552	0.06482948
48	0xbda258a3	-0.07927062
49	0x3d04de9a	0.032438852
50	0x3d7147cd	0.058906365
51	0x3e36ed01	0.17863847
52	0xbdc583d6	-0.09644286
53	0x3dc8993d	0.09794853
54	0x3e41f5c8	0.18941414
55	0xbd26be87	-0.040709045
56	0xbca904ba	-0.020632137
57	0xbdb21233	-0.086948775
58	0x3d1c2e6d	0.038130213
59	0x3cc99749	0.024608271
60	0xbc6128da	-0.01374265
61	0x3dc967c8	0.09834248
62	0xbc9b5262	-0.018960182
63	0x3d4f7c97	0.050655928
64	0xbd81ecd7	-0.06344002
65	0x3d80da68	0.06291658
66	0x3cdb4acd	0.026769066
67	0xbd1de99c	-0.038552865
68	0x3d96d1ad	0.07364211
69	0xbd0cd7d0	-0.034385502
70	0xbcf48fd4	-0.029853739
71	0x3d326206	0.043550514
72	0xbb5349d2	-0.0032240045
73	0x3c4b1713	0.012395638
74	0x3dc01898	0.09379691
75	0xbdc518e8	-0.09623891
76	0x3c2933fd	0.010327336
77	0x3cd38a0d	0.025822664
78	0x3cd9fb6d	0.026609147
79	0xbcafd3e0	-0.021463335
80	0x3cb8e7d2	0.022571478
81	0xbd1a91c0	-0.037736654
82	0x3ded2281	0.11578847
83	0xbd60ae77	-0.054853883
84	0xbda8ec68	-0.08248216
85	0xbc3dbe55	-0.011581023
86	0xbb817b00	-0.0039514303
87	0xbd2a8523	-0.041630875
88	0xbcad094f	-0.021122603
89	0x3daeb73f	0.08531045
90	0xbccf6cda	-0.02532046
91	0x3d8a0031	0.06738318
92	0xbd711ddd	-0.05886637
93	0x3da2f6ba	0.079572156
94	0x3c9e5607	0.01932813
95	0x3d368e73	0.044569444
96	0x3d6334fa	0.055470444
97	0xbd62ad80	-0.055341244
98	0xbda210a2	-0.07913329
99	0xbd5d516a	-0.05403272
100	0xbd273b6b	-0.04082815
101	0x3d1d97de	0.03847491
102	0x3dae5d80	0.085139275
103	0x3aa6874d	0.0012705118
104	0xbb10b671	-0.00220814
105	0x3d8efac0	0.069814205
106	0xbd845f2e	-0.064634666
107	0x3e065d9a	0.13121644
108	0xbd63fec3	-0.05566288
109	0x3d54f06d	0.0519871
110	0x3d9296ef	0.071576945
111	0x3d9f30c2	0.07772972
112	0xbd85b632	-0.065288916
113	0xbbac67de	-0.0052614054
114	0xbc899fba	-0.016799796
115	0xbd987dbc	-0.07445857
116	0x3cc1f6fa	0.023677338
117	0x3dcd14a9	0.10013706
118	0x3dc676d3	0.09690633
119	0xbbeae322	-0.0071681896
120	0x3d3c240c	0.045932814
121	0xbcb5c907	-0.022190584
122	0x3ad83c0e	0.001649739
123	0xbdb2f944	-0.0873895
124	0xbd863f92	-0.06555094
125	0xb96e6d00	-0.00022738054
126	0xbda4ab77	-0.08040517
127	0x3e2d14f9	0.16902532
128	0xbd90c2d7	-0.07068413
129	0xbd852047	-0.06500297
130	0xbb8abc9a	-0.004233909
131	0x3b24d0cc	0.0025148867
132	0x3d1ed237	0.038774695
133	0x3c0a23a0	0.008431345
134	0x3d4aa083	0.049469482
135	0x3ccb76f1	0.02483699
136	0x3dc79c4f	0.097466104
137	0xbd5a4e27	-0.053297188
138	0xbdbd021f	-0.0922892
139	0x3d0ccd87	0.034375694
140	0x3cf6e13b	0.030136695
141	0x3caa1d50	0.02076593
142	0x3d335ac9	0.04378775
143	0xbc6a9787	-0.0143183535
144	0x3c532519	0.012887263
145	0x3d0eae05	0.034833927
146	0x3e00dc0c	0.12583941
147	0x3d8b9463	0.06815412
148	0x3cf22527	0.029558731
149	0x3d161761	0.03664339
150	0xbd116597	-0.035497274
151	0xbce1e94e	-0.027577069
152	0x3df0e200	0.11761856
153	0xbcf6be21	-0.030119957
154	0x3cb6e7a6	0.022327255
155	0x3dbba55f	0.091624014
156	0xbda28bc1	-0.07936812
157	0x3a013e67	0.0004930258
158	0x3ddc910d	0.10769854
159	0x3d17562b	0.03694741
160	0xbcc8870d	-0.02447846
161	0x3d70f8c3	0.058830988
162	0x3d8e9c57	0.06963413
163	0x3d3b6dfd	0.04575919
164	0xbd9d7b0a	-0.076894835
165	0xbd4a8c6b	-0.04945032
166	0x3d505d36	0.050870143
167	0x3cb281c0	0.021790385
168	0x3d34ba61	0.044123057
169	0xbc263562	-0.010144563
170	0xbccafd8c	-0.024779104
171	0xbd8d9dfd	-0.069148995
172	0xbd880d8f	-0.06643211
173	0x3d7f5223	0.06233419
174	0xbd84390c	-0.06456193
175	0xbc2982cd	-0.010346127
176	0x3d8531c9	0.065036364
177	0xbd228280	-0.039675236
178	0xbd9551e6	-0.072910115
179	0xbd2ff937	-0.04296228
180	0x3bf336d5	0.007422308
181	0x3cc77891	0.024349483
182	0x3d80dfc6	0.062926814
183	0x3b9f0d33	0.0048538684
184	0xbd2156e5	-0.03938951
185	0xbd729bb0	-0.059230506
186	0xbd1d5f6c	-0.03842108
187	0x3d8ae188	0.06781298
188	0xbe080eb6	-0.13286862
189	0xbdab6ec7	-0.083707385
190	0xbd0fdae0	-0.035120845
191	0x3df5736c	0.119849056
192	0xbd19141d	-0.037372697
193	0xbd90f995	-0.07078854
194	0x3d43751d	0.04771911
195	0xbdaa5e7f	-0.08318805
196	0x3dbff810	0.09373486
197	0x3d2b40b6	0.04180976
198	0xbd6067e3	-0.054786574
199	0x3dcb0e0e	0.0991479
200	0xbc35bb8e	-0.01109208
201	0x3d67f9bd	0.056634653
202	0x3a88f800	0.0010449886
203	0x3cb93593	0.022608554
204	0xbd008a12	-0.031381674
205	0x3d512f27	0.05107036
206	0x3d866e27	0.06563979
207	0xbcff9730	-0.031200022
208	0xbdd2b9fe	-0.102893814
209	0xbdc5924b	-0.09647044
210	0x3cec7950	0.02886644
211	0x3c8ccf7a	0.017188776
212	0x3d3e73c7	0.046497133
213	0xbcb1e5e4	-0.021716066
214	0xbddfab59	-0.10921354
215	0xbcbc6580	-0.022997618
216	0x3d2189a6	0.039437912
217	0x3d89b3ad	0.067237236
218	0xbcda848b	-0.02667453
219	0x3dacd2b8	0.08438629
220	0xbdcf8d31	-0.10134352
221	0xbdd848f9	-0.105607934
222	0x3d15e3d0	0.036594212
223	0x3d1e21b0	0.038606346
224	0xbb988fb3	-0.004655802
225	0x3d906265	0.07050017
226	0x3d185093	0.037186217
227	0x3dad1ea1	0.084531076
228	0xbc908dd5	-0.017645756
229	0xbd9014c2	-0.07035209
230	0x3d9c309b	0.07626458
231	0xbbedffc6	-0.0072631566
232	0xbd1270a4	-0.035751954
233	0xbd669015	-0.05628975
234	0xbd8a50b8	-0.06753677
235	0x3d23083a	0.039802767
236	0x3b815200	0.0039465427
237	0x3d0abae7	0.03386965
238	0x3d0f0a77	0.03492209
239	0xbdbd8396	-0.09253614
240	0xbcd4f9b1	-0.025997968
241	0xbdc1c18c	-0.09460744
242	0xbd51efba	-0.05125401
243	0x3d772c5c	0.06034504
244	0x3cfb8807	0.030704511
245	0x3d80d47a	0.06290527
246	0xbdf0be96	-0.117551014
247	0x3c7fc30d	0.015610469
248	0xbdb0f230	-0.086399436
249	0xbc9b7bed	-0.01897999
250	0x3d9ec70a	0.077528074
251	0x3d338f63	0.043837916
252	0x3cb5c6e2	0.022189561
253	0x3c9afe71	0.018920155
254	0xbcbb2f7b	-0.022849789
255	0xbd65e190	-0.056123316

bias f4 [100]
0	0xbb4ec1f5	-0.0031548713
1	0x3db37688	0.087628424
2	0xbd855df5	-0.065120615
3	0xbc03f0b4	-0.008052994
4	0xbd0b7ac8	-0.03405264
5	0x3d89be9b	0.06725808
6	0x3aa2c92f	0.0012419577
7	0xbdaf0705	-0.08546261
8	0x3bf2ec30	0.0074134097
9	0xbdc07911	-0.093980916
10	0x3cbb5b38	0.022870645
11	0xbd843ab9	-0.06456513
12	0xbc8fb42e	-0.017541971
13	0xbd2cb461	-0.04216421
14	0x3c6fcd83	0.0146364
15	0x3cf556fd	0.029948706
16	0xbd942fea	-0.072357014
17	0xbd164d04	-0.03669454
18	0x3cac6d9a	0.021048356
19	0x39f69022	0.00047028164
20	0xbd64257d	-0.055699814
21	0x3bfcc111	0.007713445
22	0x3c0d0d1c	0.008609083
23	0xbc88464d	-0.016635085
24	0x3ca092d2	0.01960126
25	0xbcc19cd9	-0.023634361
26	0xbc0d807f	-0.008636593
27	0x3d05199d	0.03249513
28	0x3e08431c	0.1330685
29	0x3b818706	0.0039528636
30	0xbd858b84	-0.06520751
31	0xbcb99f95	-0.022659102
32	0x3c90b7bc	0.017665736
33	0xbaea4bc5	-0.0017875364
34	0xbc9ab063	-0.018882936
35	0xbdce3584	-0.10068801
36	0xbd8a96fd	-0.0676708
37	0x3cbd00fc	0.023071758
38	0xbcbebd78	-0.023283705
39	0xbb3f602c	-0.002920161
40	0xbda2323d	-0.079197384
41	0xbdfe3c10	-0.124138
42	0xbd68d023	-0.05683912
43	0xbd94a6a4	-0.07258347
44	0x3dded75e	0.10880922
45	0xbdc617d7	-0.09672516
46	0xbd079d28	-0.03310886
47	0xbd6b2040	-0.057403803
48	0x3d90043f	0.0703206
49	0xbd9fc72d	-0.07801662
50	0xbd98741b	-0.0744402
51	0x3dc2990f	0.0950185
52	0xbd10f1b0	-0.03538674
53	0xbcca5c5f	-0.02470225
54	0xbca32dfe	-0.019919392
55	0x3d04dc80	0.032436848
56	0x3d552ecc	0.052046582
57	0x3cd4a63d	0.025958175
58	0x3b461bfc	0.0030229082
59	0xbd516201	-0.051118854
60	0x3d5ac50a	0.053410567
61	0x3c5ae140	0.013359368
62	0xbd951ae1	-0.07280517
63	0xbdcecc23	-0.1009753
64	0x3d6adbbd	0.057338465
65	0x3d94c08c	0.07263288
66	0xbc880134	-0.016602136
67	0xbdfb1503	-0.12259867
68	0xbda248ec	-0.07924065
69	0x3a9583a4	0.001140703
70	0xbcfbbe78	-0.030730471
71	0xbdb7fc30	-0.08983648
72	0x3cd90017	0.0264893
73	0x3d2dff8d	0.04248004
74	0xbc9df153	-0.019280111
75	0x3d542ed1	0.05180246
76	0x3d0678aa	0.032829918
77	0xbd49fbb6	-0.049312316
78	0xbbb7b323	-0.0056060716
79	0xbdbb7292	-0.09152712
80	0xbd845d04	-0.06463054
81	0x3cdc9172	0.026924822
82	0xbd4ccef3	-0.05000205
83	0xbd2dd5b3	-0.042440128
84	0xbd23368f	-0.039846953
85	0x3a50f3c6	0.00079708954
86	0x3c18aa39	0.009317928
87	0x3c82cb9e	0.015966233
88	0xbca29369	-0.019845681
89	0xbdc71a15	-0.09721772
90	0xbcc0ce1f	-0.023535786
91	0xbd015b8c	-0.031581447
92	0xbb7ea0c9	-0.003885316
93	0xbdd9e6d1	-0.10639728
94	0xbd442d19	-0.04789457
95	0x3ce525ed	0.027972186
96	0x3ce6bd5f	0.028166471
97	0xbddc9047	-0.10769706
98	0xbd9cce11	-0.076564915
99	0xbc0caec7	-0.008586592

weight f4 [15, 100]
0	0x3c850640	0.016238332
1	0xbd19865d	-0.037481654
2	0x3dbb0e1b	0.0913355
3	0x3c6984be	0.01425284
4	0x3db10226	0.08642988
5	0xbbe026ad	-0.006840548
6	0xbd895b40	-0.06706858
7	0x3ca4c6b5	0.020114282
8	0xbdbbc597	-0.09168547
9	0xbdc20107	-0.09472852
10	0xbbd8124f	-0.0065939794
11	0xbd8a6014	-0.06756607
12	0x3d0e4038	0.034729213
13	0x3c8bc7aa	0.01706298
14	0x3dc23268	0.094822705
15	0xbba4473f	-0.005013376
16	0xbcf6f8c2	-0.030147914
17	0x3c92d4b1	0.017923685
18	0x3b9975a1	0.004683212
19	0x3d0b723f	0.0340445
20	0x3c64ae3a	0.0139575545
21	0x3ca95e2c	0.020674787
22	0x3b815bd5	0.003947715
23	0xbbeff49a	-0.00732286
24	0xbda6cbba	-0.081443265
25	0xbd703f3f	-0.058654066
26	0xbcf6706d	-0.030082906
27	0xbe1d1c4f	-0.1534283
28	0xbafb5e1f	-0.001917783
29	0x3cf63ede	0.030059274
30	0x3d56233a	0.05227969
31	0xbc086489	-0.008324751
32	0xbd1bebca	-0.038066663
33	0xbd9943ab	-0.0748361
34	0xbd835481	-0.06412602
35	0xbc7a7a71	-0.015287981
36	0xbd069491	-0.032856528
37	0x3d5fef53	0.054671597
38	0xbc6af85f	-0.014341443
39	0xbdff51ee	-0.12466799
40	0x3be928cd	0.0071154595
41	0x3d196b78	0.037456006
42	0x3ce29da8	0.027663067
43	0x3cca66eb	0.024707278
44	0xbc70aca2	-0.014689596
45	0xbc80893e	-0.015690442
46	0xbd9bc276	-0.0760545
47	0xbc2fabdb	-0.010722126
48	0xbc5c8b6e	-0.013460977
49	0xbc9b9b46	-0.018994939
50	0x3dad6cb6	0.084680006
51	0x3c747552	0.0149205495
52	0xbd9444a7	-0.07239657
53	0xbd57a25a	-0.052645065
54	0x3da18ead	0.07888541
55	0x3d80a500	0.06281471
56	0xbb9ef1dc	-0.004850609
57	0xbda54e81	-0.08071614
58	0x3c6f98f4	0.014623869
59	0x3dd1b70c	0.102399915
60	0xbdac4ee4	-0.08413485
61	0x3bde3260	0.0067809075
62	0xbd6cd6ec	-0.057822153
63	0xbdc18bd6	-0.094505
64	0xbad96341	-0.0016585366
65	0xbcd3607f	-0.025802849
66	0xbd6476f6	-0.055777512
67	0xbc26858d	-0.010163677
68	0xbc051cb0	-0.008124515
69	0x3bf44259	0.0074541983
70	0xbd92cef1	-0.07168377
71	0xbcbbda8d	-0.022931362
72	0x3caee614	0.021349944
73	0xbd50618b	-0.050874274
74	0xbd9fd9a9	-0.07805187
75	0xbc938829	-0.018009262
76	0x3b3bad8c	0.0028637378
77	0xbd8a20f2	-0.06744565
78	0x3d13d1fd	0.036088932
79	0xbdc52088	-0.096253455
80	0xbd6d6e88	-0.05796674
81	0xbcca7263	-0.024712747
82	0xbb9863d7	-0.0046505737
83	0xbdb50377	-0.088385515
84	0xbd056580	-0.0325675
85	0x3cb05943	0.021526938
86	0xbd45a15b	-0.048249584
87	0xbd270c22	-0.040783055
88	0xbd837e2e	-0.06420551
89	0xbd803cd2	-0.062616006
90	0xbdea59a7	-0.11442881
91	0xbd0f7caa	-0.035031
92	0xbd15ebd9	-0.036601875
93	0xbdb08970	-0.08619964
94	0x3c13066f	0.008973702
95	0xbd5a7bbf	-0.05334067
96	0x3bb3f32f	0.005491636
97	0x3cc7f4bd	0.024408692
98	0x3d604460	0.054752707
99	0xbd2c35ce	-0.0420435
100	0xbcc759f6	-0.024334889
101	0x3d80e961	0.062945135
102	0xbc33dadd	-0.010977474
103	0xbb820190	-0.0039674714
104	0xbc7dbd5e	-0.015487043
105	0x3cf67b64	0.030088134
106	0x3d28ec84	0.041241184
107	0xbd61b612	-0.055105276
108	0xbc01a1b9	-0.007912093
109	0x3d4352bb	0.04768632
110	0xbae94cd7	-0.0017799389
111	0xbd66d34c	-0.056353852
112	0x3d1071ee	0.0352649
113	0x3c3c47a1	0.011491687
114	0x3a00d7da	0.0004914977
115	0xbcace0e1	-0.021103324
116	0x3d812e64	0.063076764
117	0xbb766a4a	-0.0037599974
118	0xbd17f1de	-0.037095897
119	0x3c96e184	0.018418081
120	0x3c23400b	0.0099639995
121	0xbb22981a	-0.0024809898
122	0xbaf18348	-0.0018425966
123	0x3d37d10a	0.04487709
124	0xbd762726	-0.06009593
125	0xbd409f50	-0.047026932
126	0xbd1e9861	-0.03871954
127	0xbd98f49d	-0.07468531
128	0xbc0c8656	-0.00857695
129	0xbda3c10b	-0.079958044
130	0x3c750fc4	0.014957372
131	0xbc349477	-0.011021725
132	0xbcb15d70	-0.021651
133	0x3b9b6e7f	0.004743397
134	0xbcc59893	-0.024120605
135	0xbd56edde	-0.05247294
136	0x3c798c8c	0.015231263
137	0x3ce8eba8	0.028432682
138	0x3cb9aa06	0.022664081
139	0xbd657255	-0.05601724
140	0xbda0c0ed	-0.07849298
141	0x3dba280e	0.09089671
142	0xbd9d85da	-0.07691546
143	0xbcfafc17	-0.030637784
144	0x3db5b6d1	0.0887276
145	0xbd917d2c	-0.07103953
146	0xbd0754f1	-0.03303999
147	0xbd8395c8	-0.06425053
148	0x3e023625	0.12715967
149	0x3c87cfbe	0.016578551
150	0x3d02218a	0.031770267
151	0xbc5269a6	-0.012842571
152	0x3d8ca0df	0.06866621
153	0x3b9cf8eb	0.0047904155
154	0xbbff10e5	-0.0077839964
155	0x3d15e38a	0.03659395
156	0x3b90f090	0.0044232085
157	0x3d98140c	0.07425699
158	0xbd462787	-0.04837754
159	0x3c9840a9	0.01858552
160	0xbc9c478d	-0.019077087
161	0xbd2d1391	-0.042254988
162	0xbcfdd502	-0.03098536
163	0x3cdf719a	0.02727585
164	0x3c1bf0e4	0.009517882
165	0x3c4678f0	0.012113795
166	0xbcedbbde	-0.029020246
167	0xbd8c9d97	-0.068659954
168	0x3d2e0dc0	0.04249358
169	0xbcae55b4	-0.0212811
170	0xbd029b39	-0.031886313
171	0x3ced0520	0.028933108
172	0x3d438e1a	0.04774294
173	0xbcaf87f2	-0.021427128
174	0x3c8da2e1	0.01728958
175	0xbb56a73e	-0.0032753493
176	0x3cdbfe60	0.026854694
177	0x3cec9f6b	0.02888461
178	0xbd92d5ab	-0.0716966
179	0x3da5d950	0.0809809
180	0x3ce3a148	0.027786866
181	0xbdaefe75	-0.085446276
182	0xbd2e7463	-0.042591464
183	0x3da248d0	0.07924044
184	0xbd1e2193	-0.038606238
185	0xbc0c4a91	-0.0085627
186	0xbbc7a5bd	-0.0060927556
187	0x3d1af40f	0.03783041
188	0x3d8cc1fb	0.06872936
189	0xbd997039	-0.07492108
190	0xbd42a9f9	-0.04752538
191	0xbd2154ca	-0.0393875
192	0xba65f067	-0.00087714795
193	0x3c25a438	0.010109954
194	0x3c99e080	0.018783808
195	0xbd7390bb	-0.059464198
196	0xbd850f7a	-0.064970925
197	0x3dc58f02	0.09646417
198	0xbb779164	-0.0037775869
199	0x3d5566c6	0.052099966
200	0x3bd113eb	0.0063805482
201	0x3c92a5c2	0.017901305
202	0xbce3bd4f	-0.02780023
203	0x39c81c79	0.00038168186
204	0xbd66bffd	-0.056335438
205	0x3d054383	0.032535087
206	0xbd1d4491	-0.03839547
207	0xbb6b769b	-0.0035928849
208	0x3deb59c2	0.11491729
209	0xbd4d1f1b	-0.050078493
210	0x3a974471	0.0011540783
211	0xbdbbdefc	-0.0917339
212	0xbdc005de	-0.09376119
213	0x3bbb2f0e	0.0057123965
214	0x3d214921	0.03937638
215	0xbc8a98c1	-0.016918542
216	0x3ce43100	0.027855396
217	0xbd626ad3	-0.055277657
218	0xbcfbf5fb	-0.030756941
219	0x3c16173c	0.009160813
220	0x3d8b7586	0.06809525
221	0x3ca4e9d3	0.020131027
222	0xb9e60a8d	-0.0004387688
223	0x3d8d795a	0.069079116
224	0xbd94757f	-0.07248973
225	0x3c96bedd	0.018401558
226	0xbd821cf2	-0.06353177
227	0x3d4b6ab1	0.049662296
228	0xbb870c4d	-0.0041213394
229	0xbc33db1c	-0.010977533
230	0xbd8202ce	-0.06348191
231	0xbb1d5c0b	-0.002401116
232	0x3d180c95	0.037121374
233	0x3cbc7413	0.023004567
234	0x3d80201b	0.06256124
235	0x3d0669b4	0.03281565
236	0xbc2b35fe	-0.010449884
237	0xbcd852d1	-0.026406677
238	0x3cc9a52c	0.024614893
239	0xbd646992	-0.055764742
240	0x3d0dd073	0.03462262
241	0xbd464693	-0.04840715
242	0x3c9bcedc	0.019019537
243	0xbce7121b	-0.028206876
244	0xbc985733	-0.018596267
245	0xbd985075	-0.07437221
246	0x3ca1c69b	0.019748023
247	0x3dce0398	0.10059279
248	0x3dcb7c2b	0.099357925
249	0x3ae0b8ad	0.0017144881
250	0x3db2b8c9	0.08726651
251	0xbab9f688	-0.0014187852
252	0xbc53ddd7	-0.012931309
253	0x3d9bc584	0.076060325
254	0xbd806e6a	-0.0627106
255	0x3db2fd4b	0.08739718

bias f4 [15]
0	0xbd7628f6	-0.060097657
1	0xbd8acf58	-0.06777829
2	0x3cd96533	0.026537513
3	0xbdd99199	-0.10623474
4	0xbdd8c768	-0.10584909
5	0xbcece52e	-0.028917875
6	0xbe05c985	-0.13065155
7	0xbd93bd8b	-0.07213887
8	0xbca1f7cb	-0.019771477
9	0xbc5010c7	-0.0126993125
10	0x3d962748	0.07331711
11	0xbd6f03d5	-0.058353264
12	0xbd2798ff	-0.040917393
13	0x3d996252	0.07489456
14	0x3b9d6bf6	0.0048041297
